model_save/tflite_model/converted_model.tflite (tflite, 1740 bytes, 5 tensors)

StatefulPartitionedCall/sequential/dense/MatMul/ReadVariableOp/transpose f4 [4, 1]
0.20192724 0.39565364 -0.2616305 -0.5835836
00000000: 04c6 4e3e 1d93 ca3e 6ff4 85be bc65 15bf

StatefulPartitionedCall/sequential/dense/MatMul_bias f4 [4]
7.1221843 6.8020716 -0.6832258 -4.929837
00000000: efe8 e340 92aa d940 e3e7 2ebf 3ac1 9dc0

StatefulPartitionedCall/sequential/dense_1/MatMul/ReadVariableOp/transpose f4 [4, 4]
-0.21046239 -0.73787844 0.07608163 -0.07550454 1.7851074 1.8086293 0.3447005 -0.6063225
-0.23566449 0.13558918 -0.23635411 -0.8606052 -1.3081429 -1.3983287 -0.017959436 -0.7502183
00000000: 7483 57be 9ae5 3cbf b0d0 9b3d 20a2 9abd
00000010: 667e e43f 2a81 e73f 957c b03e f437 1bbf
00000020: 0852 71be e4d7 0a3e d006 72be 9f50 5cbf
00000030: 3a71 a7bf 6ffc b2bf ab1f 93bc 4e0e 40bf

StatefulPartitionedCall/sequential/dense_1/MatMul_bias f4 [4]
0.0 5.946286 0.0 -0.835018
00000000: 0000 0000 fa47 be40 0000 0000 bdc3 55bf

StatefulPartitionedCall/sequential/dense_2/MatMul/ReadVariableOp/transpose f4 [1, 4]
-0.2554683 1.6748183 0.21080363 0.19469604
00000000: becc 82be 7260 d63f e8dc 573e 665e 473e
